saved_models/cnn_channel_estimator_20251211_134333.pth (torch, 80293 bytes, 10 tensors)

fc1.weight f4 [64, 2]
0.5072257 1.1594878 0.20266032 0.23191041 0.1950263 -0.63032407 0.89497364 -1.0043437
-0.94195545 -0.38672212 0.717067 -0.4937491 1.3700626 -0.09035916 -0.33572575 0.9551333
-0.5054874 0.63544846 1.2232679 -0.19992378 0.35498962 0.63081366 0.93927014 0.48334202
-0.59232885 -0.58215886 1.1651884 1.0279549 1.1214241 0.96010745 1.2238328 0.038366918
-1.1793716 0.56216156 -1.2395847 0.26274225 -0.0713326 0.6186956 -0.106252246 0.5991994
0.8256576 -0.37369746 0.626736 0.14542444 -0.6770339 -0.48481664 0.9838374 0.28427306
0.7454827 -0.98903203 0.49358916 1.1583043 0.85818046 0.07949451 1.2527926 0.29944977
-1.0038204 -0.7703818 0.50429624 0.5114301 0.51129717 0.45979822 -0.31160977 -1.2047033
1.2038903 0.7203388 1.1126833 0.3696119 0.62436336 -1.2001449 1.3782225 -0.91359997
0.44329932 0.39202043 0.44180843 -1.1013908 0.05501765 -0.327005 -0.72522676 -1.0435317
-0.9640929 -1.0246663 0.5315602 0.38140902 -0.022160135 0.7579944 0.5087816 -0.85755
1.3681189 -0.8709431 -1.2609347 -0.36695817 0.014767513 0.70743865 0.53918713 0.30136392
1.1622533 0.60180664 -0.006075996 -1.2382584 -0.78327626 -0.637728 -1.2226142 -0.86880213
-0.6576669 -1.0987034 -0.6214533 0.73371553 1.4123474 0.69340944 0.7832279 -1.1500689
1.1506007 0.41027227 0.20210122 0.40148005 -0.8645852 0.5768176 0.87516785 -1.3590035
-0.8063632 -0.5715935 0.029221172 -0.049118284 -0.6021036 -1.0355307 -1.0329634 0.45557952
00000000: 8bd9 013f 196a 943f 3086 4f3e ec79 6d3e
00000010: f9b4 473e eb5c 21bf fe1c 653f 568e 80bf
00000020: fe23 71bf 7100 c6be b491 373f afcc fcbe
00000030: 365e af3f 390e b9bd 3fe4 abbe 9e83 743f
00000040: 9f67 01bf c0ac 223f 0b94 9c3f d2b8 4cbe
00000050: 33c1 b53e 017d 213f 0274 703f 9b78 f73e
00000060: dda2 17bf 5d08 15bf e524 953f 0794 833f
00000070: d38a 8f3f 9ac9 753f 8ea6 9c3f a126 1d3d
00000080: a6f5 96bf d2e9 0f3f b6aa 9ebf 2786 863e
00000090: d416 92bd d662 1e3f c79a d9bd 2265 193f
000000a0: 4c5e 533f 4655 bfbe c571 203f 25ea 143e
000000b0: 1852 2dbf e339 f8be c5dc 7b3f 3d8c 913e
000000c0: f4d7 3e3f 3431 7dbf b8b7 fc3e 5143 943f
000000d0: b7b1 5b3f 05ce a23d 825b a03f 7b51 993e
000000e0: 307d 80bf be37 45bf 8f19 013f 15ed 023f
000000f0: 5fe4 023f ac6a eb3e 518b 9fbe b833 9abf
00000100: 1419 9a3f 2068 383f 686c 8e3f c53d bd3e
00000110: 47d6 1f3f 599e 99bf 9869 b03f b0e1 69bf
00000120: 21f8 e23e e7b6 c83e b734 e23e 60fa 8cbf
00000130: 305a 613d 336d a7be 76a8 39bf 7292 85bf
00000140: cbce 76bf 4428 83bf 5414 083f 0b48 c33e
00000150: 2c89 b5bc ec0b 423f 833f 023f 6688 5bbf
00000160: 851e af3f 21f6 5ebf 4f66 a1bf f1e1 bbbe
00000170: 70f3 713c b31a 353f 2b08 0a3f 5f4c 9a3e
00000180: b7c4 943f 0010 1a3f 2619 c7bb 407f 9ebf
00000190: cb84 48bf 2442 23bf 9f7e 9cbf d169 5ebf
000001a0: dc5c 28bf 50a2 8cbf 9017 1fbf c8d4 3b3f
000001b0: cdc7 b43f 4883 313f a081 483f 7535 93bf
000001c0: e246 933f 350f d23e 9ff3 4e3e cb8e cd3e
000001d0: 7555 5dbf 51aa 133f 000b 603f d4f3 adbf
000001e0: d26d 4ebf f453 12bf 3d61 ef3c 4130 49bd
000001f0: 7623 1abf 458c 84bf 2538 84bf b841 e93e

fc1.bias f4 [64]
-0.6353064 -0.52101225 0.2904364 -0.5581159 0.18474615 0.19741683 -0.25734338 -0.099109605
-0.17204784 -0.073013015 -0.1749133 -0.35472065 -0.06260107 -0.2590306 -0.53361094 -0.43438855
-0.13357644 -0.47920135 -0.036651865 -0.20989093 0.083782315 -0.13601305 0.114844345 -0.19734831
-0.09856734 -0.6134371 -0.0923782 -0.4813352 -0.35532936 -0.12104159 -0.12130448 -0.49413097
-0.16657658 -0.06344035 -0.14589866 0.33092377 -0.05053354 -0.15533343 -0.65566117 -0.16394317
-0.091806754 -0.10664304 -0.013786568 0.1331019 0.2882204 0.15161486 -0.1277486 -0.09102031
-0.12100078 -0.08066113 -0.096351124 -0.13942164 -0.14886259 -0.50425684 -0.10034601 0.21806978
-0.45374903 -0.1410487 -0.10389594 -0.0668924 0.22822885 -0.07055667 -0.039047137 -0.09128222
00000000: 71a3 22bf 0f61 05bf 14b4 943e afe0 0ebf
00000010: 182e 3d3e a327 4a3e 83c2 83be faf9 cabd
00000020: 4f2d 30be d987 95bd 791c 33be f29d b5be
00000030: fd34 80bd a99f 84be ba9a 08bf 2d68 debe
00000040: 43c8 08be e159 f5be 4420 16bd a6ed 56be
00000050: 1096 ab3d 0147 0bbe 8333 eb3d ad15 4abe
00000060: acdd c9bd 370a 1dbf c830 bdbd 9171 f6be
00000070: bbed b5be a7e4 f7bd 7c6e f8bd bcfe fcbe
00000080: 0d93 2abe 04ed 81bd 7566 15be d76e a93e
00000090: 42fc 4ebd ba0f 1fbe 69d9 27bf b8e0 27be
000000a0: 2e05 bcbd ab67 dabd 0fe1 61bc dd4b 083e
000000b0: a091 933e ed40 1b3e 87d0 02be db68 babd
000000c0: 42cf f7bd aa31 a5bd bd53 c5bd 8cc4 0ebe
000000d0: 6f6f 18be fa16 01bf 3582 cdbd af4d 5f3e
000000e0: cb51 e8be 126f 10be 65c7 d4bd e2fe 88bd
000000f0: d3b4 693e 0480 90bd e4ef 1fbd 2cf2 babd

fc2.weight f4 [128, 64]
-0.58403546 -0.009853512 0.015148858 -2.135558 0.32813993 -0.18927988 -0.10913338 0.04259744
0.4951917 -0.9235503 0.48504433 0.0033785957 0.4719723 -0.4250509 -0.6679582 -1.4220419
0.07707194 -1.0275714 0.50291306 0.50487316 -0.4858422 -0.5134382 0.0020476014 -0.8765337
0.2501863 -0.25000817 -0.9027892 -0.87126863 -1.8445988 0.18765679 -0.46078882 -2.2520812
-0.8496731 -0.75905466 0.17257245 -0.168632 0.23653089 0.18986745 -0.08241038 -0.43489218
0.087781385 0.32008457 0.60219246 -0.3125221 -0.047965847 0.14645876 0.46398953 -0.68514985
-0.16659355 0.33688235 0.5510781 0.63940555 0.27059057 0.06482755 -0.5826881 0.06403573
-0.34325886 0.17354403 0.03741205 0.46415514 0.21607111 0.065564185 0.4029282 0.40795922
-1.5441831 -0.061219916 -0.0064768377 -1.920479 0.25156257 -0.06215855 0.56079257 0.768654
0.7410259 0.027665025 0.20043056 -1.0723624 -0.7742955 0.9846731 -0.3466852 -1.4058956
0.8701954 -1.180417 0.701018 0.36505255 -0.041457947 0.02319413 -0.67505896 0.4473075
0.47737244 -1.5627937 0.066501185 -1.6064161 -0.61757135 0.30863914 0.17531581 -2.3304837
0.6703695 0.24175031 0.17319688 0.11406507 0.30508044 0.40739626 -0.026833206 -1.5297148
-0.39951918 0.3091238 0.63358 -0.11081207 0.029618882 0.37405172 0.72788453 0.16715167
0.10762139 0.38867217 -0.74711156 -1.7563168 -0.032405086 -0.5974313 0.050373804 0.03764433
-1.4269005 0.3097703 1.0624093 0.2519758 -0.86807173 0.0962391 0.19963098 0.9269033
0.010370226 -0.10977413 -0.11678618 0.004128128 0.07440849 -0.020760912 -0.1287175 -0.031469684
-0.12946865 -0.013862327 0.04208661 0.031011967 -0.094933935 -0.065240905 0.012427796 0.0021080077
-0.00018507242 -0.07487795 0.055993736 -0.05424926 -0.10526737 -0.06652012 -0.12906702 0.035207484
0.04978019 -0.13773361 -0.08409495 -0.11837546 -0.071557805 0.027894534 -0.038809348 -0.049989954
0.004685416 0.019272724 -0.16573687 0.057087705 0.020259982 -0.13080478 -0.051201493 -0.027255833
-0.124206096 -0.17059357 0.026113719 -0.10929767 -0.04527573 -0.071722746 -0.060793277 -0.034877796
-0.07694745 -0.14926007 0.012347725 0.08937243 -0.025485992 -0.11794603 -0.13875347 0.047448114
0.008773592 0.019135756 -0.047220822 0.05839809 0.019559199 -0.14496976 -0.036188357 -0.121664815
-1.1685594 -0.094213605 0.0071592354 -0.80482894 -0.5316543 -0.45090178 -0.65236354 0.034933496
-0.06185871 -0.10939605 -0.1075008 -0.74878615 0.07787899 -0.47520947 -0.53573084 -0.45023748
-0.008910232 -0.30598837 -0.35081953 0.22719252 -0.034009308 -0.3794602 -0.058242712 -0.6359783
0.072361015 -0.8583567 -0.007236488 -0.07024952 -0.30758038 -0.3531014 -0.041909248 -0.78732085
-0.38380152 -0.025340097 0.20261303 -0.33970046 0.053655732 0.30965975 -0.016652316 -0.7974175
-0.10497922 0.03802292 -0.17128795 -0.26968893 -0.5547997 -0.11387183 -0.037788924 -0.21251145
-0.14101955 0.25567994 -0.109702535 0.18572126 0.11204062 -0.62819993 -0.26223758 -0.21552168
-0.5015956 -0.057928767 -0.25679442 0.057217978 -0.4659033 -0.07130179 -0.47479972 -0.08283114
00000000: 5983 15bf a070 21bc ea32 783c fbac 08c0
00000010: f501 a83e 96d2 41be 5281 dfbd a77a 2e3d
00000020: c489 fd3e cb6d 6cbf bb57 f83e 6e6b 5d3b
00000030: 5aa6 f13e 46a0 d9be 4fff 2abf 7805 b6bf
00000040: e5d7 9d3d 7687 83bf e9be 003f 5e3f 013f
00000050: 4fc0 f8be b070 03bf 0d31 063b 8364 60bf
00000060: 6b18 803e 1201 80be 311d 67bf 760b 5fbf
00000070: d01b ecbf 1a29 403e 83ec ebbe 1922 10c0
00000080: 2d84 59bf 6851 42bf d5b6 303e dead 2cbe
00000090: 2735 723e 9d6c 423e c6c6 a8bd 30aa debe
000000a0: bac6 b33d 20e2 a33e 4929 1a3f e602 a0be
000000b0: d677 44bd 49f9 153e 0990 ed3e fb65 2fbf
000000c0: 8097 2abe d87b ac3e 7413 0d3f 15b0 233f
000000d0: d98a 8a3e 4ec4 843d 0c2b 15bf 2a25 833d
000000e0: a0bf afbe 87b5 313e 613d 193d bea5 ed3e
000000f0: bf41 5d3e 8446 863d 9b4c ce3e 08e0 d03e
00000100: cba7 c5bf bcc1 7abd a73b d4bb 42d2 f5bf
00000110: cfcc 803e f799 7ebd 1a90 0f3f 82c6 443f
00000120: e0b3 3d3f c3a1 e23c ab3d 4d3e 2c43 89bf
00000130: 3b38 46bf 8913 7c3f b980 b1be 63f4 b3bf
00000140: 20c5 5e3f e717 97bf ea75 333f 2be8 ba3e
00000150: cfcf 29bd 9e01 be3c aad0 2cbf 7d05 e53e
00000160: 296a f43e a009 c8bf c631 883d 0b9f cdbf
00000170: 2819 1ebf f305 9e3e fd85 333e a526 15c0
00000180: 569d 2b3f 658d 773e 865a 313e f39a e93d
00000190: 8133 9c3e 3e96 d03e 50d1 dbbc b2cd c3bf
000001a0: c78d ccbe 7a45 9e3e 4d32 223f 70f1 e2bd
000001b0: 4ca3 f23c b583 bf3e a456 3a3f cf29 2b3e
000001c0: 9a68 dc3d 0a00 c73e b442 3fbf fdce e0bf
000001d0: 32bb 04bd 42f1 18bf c354 4e3d f130 1a3d
000001e0: ada4 b6bf 369a 9e3e 07fd 873f f902 813e
000001f0: f339 5ebf 0119 c53d 106c 4c3e 8949 6d3f
00000200: e1e7 293c 42d1 e0bd 982d efbd 3f45 873b
00000210: 7a63 983d ca12 aabc 85ce 03be 5be6 00bd
00000220: 6e93 04be d01e 63bc 0263 2c3d cf0c fe3c
00000230: b96c c2bd 069d 85bd f49d 4b3c 8026 0a3b
00000240: 0010 42b9 9c59 99bd b059 653d 7934 5ebd
00000250: 6b96 d7bd b33b 88bd 252a 04be b935 103d
00000260: 50e6 4b3d 0a0a 0dbe f939 acbd d56e f2bd
00000270: e68c 92bd 1483 e43c 8df6 1ebd 44c2 4cbd
00000280: 1e88 993b d5e1 9d3c edb6 29be ccd4 693d
00000290: 43f8 a53c b0f1 05be a8b8 51bd a047 dfbc
000002a0: c45f febd 15b0 2ebe 70ec d53c 75d7 dfbd
000002b0: 0b73 39bd 60e3 92bd 5f02 79bd 05dc 0ebd
000002c0: a096 9dbd a2d7 18be 1d4e 4a3c e508 b73d
000002d0: 00c8 d0bc b08d f1bd 6415 0ebe f458 423d
000002e0: 1dbf 0f3c 97c2 9c3c 9f6a 41bd d632 6f3d
000002f0: 9d3a a03c f472 14be 3e3a 14bd 672b f9bd
00000300: 5b93 95bf 10f3 c0bd 0598 ea3b 4509 4ebf
00000310: 7f1a 08bf 99dc e6be 4c01 27bf 6d16 0f3d
00000320: 8f5f 7dbd 090b e0bd 6129 dcbd 73b0 3fbf
00000330: 057f 9f3d a84e f3be a825 09bf 8785 e6be
00000340: 39fc 11bc 82aa 9cbe 9e9e b3be 28a5 683e
00000350: 584d 0bbd 9b48 c2be e98f 6ebd 79cf 22bf
00000360: 0332 943d 44bd 5bbf 1020 edbb fbde 8fbd
00000370: 2d7b 9dbe b5c9 b4be 08a9 2bbd dc8d 49bf
00000380: a281 c4be 0996 cfbc ca79 4f3e 38ed adbe
00000390: 1dc6 5b3d b98b 9e3e 706a 88bc 8e23 4cbf
000003a0: 58ff d6bd ecbd 1b3d 1c66 2fbe ab14 8abe
000003b0: 5a07 0ebf a235 e9bd 8fc8 1abd 9a9c 59be
000003c0: 6e67 10be 7be8 823e b9ab e0bd b72d 3e3e
000003d0: 8d75 e53d b6d1 20bf 0144 86be b7b1 5cbe
000003e0: 9268 00bf b746 6dbd 8f7a 83be 665d 6a3d
000003f0: e18a eebe ac06 92bd f318 f3be 5fa3 a9bd

fc2.bias f4 [128]
-0.024511559 -0.20036462 -0.16588365 0.020803865 0.0028165996 -0.04178906 -0.04487062 -0.0615932
-0.033199128 -0.26016346 0.14865996 -0.058385227 -0.1595845 -0.038618226 -0.11913399 -0.004762086
-0.19592826 0.04982999 -0.011877766 -0.021790888 -0.14620753 0.072676495 -0.0836185 0.14086239
0.023779115 -0.07002723 -0.052490585 -0.26937595 0.055696107 0.16266674 -0.08904081 0.09108453
-0.40946713 0.007997686 -0.13683474 -0.1468705 0.2802866 -0.109761804 -0.066099145 -0.022437284
0.03277671 -0.1689373 -0.03150132 0.1466707 -0.06895524 -0.3012971 -0.0032526422 0.02309918
-0.059280068 -0.07805662 -0.0956725 0.034992915 -0.0019413453 -0.049607046 -0.17016163 -0.19000524
-0.1787039 -0.04106201 -0.0044204686 -0.16031773 -0.13982454 0.06325463 0.048276454 -0.04639673
-0.28356352 0.2564494 -0.11676015 0.006824889 0.06515781 -0.062125996 0.17686631 0.11542346
-0.15137188 -0.005221288 -0.33127552 -0.042858485 -0.58210444 -0.42452312 -0.3757528 -0.15134703
-0.1263799 0.16319638 -0.09447349 -0.1109613 -0.11016585 0.098063394 0.09132824 -0.49395004
-0.28431302 -0.37833083 -0.26098874 -0.011989801 -0.14708681 0.100226924 -0.106208414 -0.016490802
-0.09474574 0.026487714 -0.100661166 0.0035787278 -0.08639054 -0.18573257 -0.11322309 0.0032484077
-0.23327075 -0.39899266 0.06029926 -0.35097817 -0.071242966 -0.06691755 -0.10537322 -0.12757437
-0.16714479 0.12533994 -0.3417406 -0.40290958 -0.15307015 -0.025981855 -0.07745693 -0.024336187
-0.11714826 -0.15236941 0.07476972 0.12657836 -0.24811774 -0.04800845 -0.08236977 -0.09692119
00000000: 77cc c8bc 622c 4dbe 67dd 29be de6c aa3c
00000010: b396 383b 012b 2bbd 41ca 37bd 2749 7cbd
00000020: cffb 07bd 2534 85be 513a 183e 5925 6fbd
00000030: 1f6a 23be 252e 1ebd 85fc f3bd 460b 9cbb
00000040: 6ba1 48be 881a 4c3d f69a 42bc ce82 b2bc
00000050: 6db7 15be 6ad7 943d 2d40 abbd 3b3e 103e
00000060: 6bcc c23c 706a 8fbd 5e00 57bd a5eb 89be
00000070: 9a21 643d 1c92 263e 075b b6bd 878a ba3d
00000080: ada5 d1be ba08 033c 681e 0cbe 3865 16be
00000090: ba81 8f3e ccca e0bd fd5e 87bd 65ce b7bc
000000a0: df40 063d e6fd 2cbe 8707 01bd d830 163e
000000b0: 6838 8dbd 9d43 9abe 482a 55bb 7e3a bd3c
000000c0: a8cf 72bd 26dc 9fbd f2ef c3bd bb54 0f3d
000000d0: bd74 feba c230 4bbd da3e 2ebe bc90 42be
000000e0: 28fe 36be a330 28bd 94d9 90bb 552a 24be
000000f0: 2a2e 0fbe a58b 813d 88bd 453d 7f0a 3ebd
00000100: 3d2f 91be 564d 833e f21f efbd 52a3 df3b
00000110: 7571 853d d477 7ebd 711c 353e 2363 ec3d
00000120: 3b01 1bbe 5717 abbb f29c a9be 618c 2fbd
00000130: cc04 15bf 185b d9be ac62 c0be b7fa 1abe
00000140: bc69 01be f41c 273e 517b c1bd ae3f e3bd
00000150: a29e e1bd 76d5 c83d 4d0a bb3d 05e7 fcbe
00000160: 7a91 91be 94b4 c1be 51a0 85be df70 44bc
00000170: ed9d 16be c643 cd3d cc83 d9bd b817 87bc
00000180: 0e0a c2bd c3fc d83c 7127 cebd 1789 6a3b
00000190: 86ed b0bd ae30 3ebe 82e1 e7bd 3de3 543b
000001a0: 87de 6ebe c448 ccbe 5bfc 763d 69b3 b3be
000001b0: d5e7 91bd 120c 89bd eacd d7bd dba2 02be
000001c0: 0128 2bbe 1d59 003e a0f8 aebe 2a4a cebe
000001d0: 6cbe 1cbe e6d7 d4bc bda1 9ebd af5c c7bc
000001e0: 6deb efbd ba06 1cbe de20 993d c29d 013e
000001f0: 9412 7ebe 82a4 44bd 7bb1 a8bd 9e7e c6bd

fc3.weight f4 [64, 128]
0.0017861004 -0.12864573 0.041114118 0.028985748 0.06430488 -0.119930655 0.10299644 -0.17914268
-0.011484067 -0.049847905 -0.041723594 0.05795092 -0.098237 0.011599164 -0.075334616 -0.033383906
0.050709 -0.08584779 0.08723413 -0.03606692 0.018547952 -0.18089108 -0.0038357666 0.054430332
-0.05511442 -0.014979169 -0.0061071455 0.09329579 -0.074631184 -0.09253889 0.09961476 0.018863287
-0.18579003 0.051284324 -0.091791674 0.022065943 -0.107016094 -0.03913811 0.06464494 -0.0011013253
-0.07431418 -0.0037711596 -0.045290966 -0.057744533 -0.035516676 -0.008573085 -0.027981475 -0.063834265
0.016063841 -0.009251109 0.025777342 -0.078066625 -0.044298258 0.016308859 -0.2366842 -0.066945545
-0.041313887 -0.050412837 -0.022152126 -0.012104119 -0.14202008 0.0012604995 0.16754824 0.029336337
-0.058712743 -0.015905583 -0.026026394 -0.13878892 -0.020622533 -0.037976384 -0.036729537 0.04727952
-0.03800485 -0.09131416 -0.020148857 0.0010675438 -0.36374256 0.017005587 -0.052484035 -0.05189426
-0.022832273 0.025725795 -0.03273461 -0.04936156 0.06454552 -0.10411902 -0.1292349 0.037965152
-0.098048694 -0.16115065 -0.11724502 -0.08311997 -0.06809053 -0.089678295 0.05359398 0.01907262
-0.0047626104 -0.055464726 0.10719112 -0.068264924 -0.04071324 -0.14017878 0.06750121 -0.08665342
-0.06757172 -0.17991354 0.034582324 -0.079178244 -0.080359936 -0.1232736 0.07550003 -0.086997725
0.037497476 -0.03987518 -0.18917884 0.011699802 -0.074471764 -0.21923797 -0.06266115 -0.008524179
-0.23017439 -0.06516048 0.034629103 -0.06744365 0.0034345388 -0.12237707 0.071152404 -0.0017482657
0.0070188367 -0.13871539 -0.055417676 -0.029395884 -0.20269638 0.0046044635 0.0113911675 -0.007397032
-0.07487299 -0.03207997 -0.2375048 -0.09168616 -0.010866245 -0.11761469 -0.12973075 0.14476436
-0.16435067 0.004354276 0.11524667 -0.14527224 -0.04481726 0.055743903 0.041567326 0.025163334
-0.08335522 -0.1964481 0.062335204 0.038386524 -0.20192705 0.05509995 -0.17357327 -0.09201366
-0.28848383 -0.23952688 -0.12772769 -0.060172744 -0.20948502 -0.0685028 -0.03961882 -0.0003287504
-0.06501875 0.0050923238 -0.21019875 -0.05286268 -0.00032077837 0.07844946 -0.07807847 -0.05829553
0.019193593 -0.034489967 -0.017460708 -0.060874496 -0.14650957 -0.0030678152 -0.260381 -0.05079308
-0.06747523 -0.12211199 0.09134112 -0.044710856 -0.014267622 -0.0027929666 -0.013646564 -0.07225078
-0.16458543 -0.2035493 0.04723594 -0.22402573 -0.16360496 0.04605633 0.013785683 -0.10200918
0.13490619 -0.13486691 -0.083979525 0.11954908 0.09100871 -0.024796454 -0.25906128 0.025638621
-0.020347664 0.10790833 -0.071657896 0.055151183 0.1372581 0.04827232 -0.09659001 -0.28262624
0.036729727 0.008844687 -0.12279147 -0.049134262 -0.038027365 -0.13958706 -0.04567673 -0.020698266
-0.05465426 -0.0374498 -0.012456686 -0.14002562 -0.025881216 0.060432617 0.02298411 -0.09142369
-0.24099366 -0.25474793 0.06142468 -0.097801305 -0.047210235 0.012012084 -0.022900691 0.1465489
-0.07512997 -0.12758718 0.08954936 -0.055944722 0.05695569 -0.048042532 -0.06739675 -0.16185255
-0.18032274 0.0190046 -0.0021815195 -0.02364319 -0.20599511 -0.16736145 -0.046870776 0.0012017689
00000000: 961b ea3a b5bb 03be 4767 283d 8573 ed3c
00000010: 47b2 833d 349e f5bd ccef d23d 2e71 37be
00000020: ab27 3cbc 512d 4cbd 5ce6 2abd f25d 6d3d
00000030: 7b30 c9bd 6c0a 3e3c 0949 9abd 90bd 08bd
00000040: 3eb4 4f3d f7d0 afbd cfa7 b23d e8ba 13bd
00000050: e0f1 973c 833b 39be 7c61 7bbb 57f2 5e3d
00000060: a8bf 61bd 306b 75bc 731e c8bb dd11 bf3d
00000070: 3cd8 98bd 0885 bdbd d302 cc3d 2e87 9a3c
00000080: be3f 3ebe 830f 523d 46fd bbbd a3c3 b43c
00000090: 412b dbbd 484f 20bd 9164 843d 585a 90ba
000000a0: 0832 98bd 8f25 77bb 0583 39bd 8885 6cbd
000000b0: ef79 11bd 2076 0cbc 6839 e5bc 8abb 82bd
000000c0: 5198 833c f791 17bc 012b d33c 65e1 9fbd
000000d0: 1772 35bd 289a 853c 585d 72be bf1a 89bd
000000e0: c038 29bd b17d 4ebd 6078 b5bc 5b50 46bc
000000f0: b66d 11be 5837 a53a c491 2b3e c252 f03c
00000100: c67c 70bd 6d4c 82bc 4e35 d5bc af1e 0ebe
00000110: 96f0 a8bc 208d 1bbd b671 16bd 2ca8 413d
00000120: f9aa 1bbd eb02 bbbd 370f a5bc d3ec 8b3a
00000130: 773c babe 4d4f 8b3c 80f9 56bd 138f 54bd
00000140: bf0a bbbc e7be d23c ba14 06bd 592f 4abd
00000150: 7130 843d 5a3c d5bd 2756 04be 5981 1b3d
00000160: c1cd c8bd ad04 25be 281e f0bd ce3a aabd
00000170: 0c73 8bbd 41a9 b7bd 5c85 5b3d 2f3e 9c3c
00000180: ac0f 9cbb fb2e 63bd 0587 db3d 7bce 8bbd
00000190: edc2 26bd 078b 0fbe 133e 8a3d 5977 b1bd
000001a0: 0b63 8abd 413b 38be 32a6 0d3d 3428 a2bd
000001b0: c093 a4bd df76 fcbd c29f 9a3d dd2b b2bd
000001c0: f496 193d 2854 23bd 19b8 41be 87b0 3f3c
000001d0: a784 98bd eb7f 60be 7d54 80bd 00a9 0bbc
000001e0: d6b2 6bbe dc72 85bd 3fd7 0d3d e51f 8abd
000001f0: 0016 613b d4a0 fabd 5ab8 913d 1026 e5ba
00000200: 45fe e53b 680b 0ebe a5fd 62bd a3cf f0bc
00000210: a48f 4fbe 0ae1 963b 05a2 3a3c cd62 f2bb
00000220: 0357 99bd 4966 03bd 7534 73be f4c5 bbbd
00000230: 5608 32bc f8df f0bd 23d8 04be 1c3d 143e
00000240: 8b4b 28be 51ae 8e3b 7206 ec3d 3fc2 14be
00000250: 4e92 37bd b853 643d 8042 2a3d 5623 ce3c
00000260: 24b6 aabd b129 49be 3353 7f3d 303b 1d3d
00000270: f7c5 4ebe 7cb0 613d 31bd 31be a871 bcbd
00000280: 27b4 93be 8946 75be 0ccb 02be b277 76bd
00000290: 3e83 56be 324b 8cbd 5847 22bd 225c acb9
000002a0: 8d28 85bd 82dd a63b 573e 57be 8a86 58bd
000002b0: 252e a8b9 1caa a03d 9be7 9fbd 4bc7 6ebd
000002c0: e23b 9d3c 5a45 0dbd c209 8fbc 8957 79bd
000002d0: 9b06 16be 660d 49bb a950 85be 680c 50bd
000002e0: 7430 8abd da15 fabd 0e11 bb3d bb22 37bd
000002f0: bec2 69bc 340a 37bb d795 5fbc 38f8 93bd
00000300: 1589 28be 3a6f 50be 797a 413d 0067 65be
00000310: 0f88 27be 90a5 3c3d 58dd 613c 30ea d0bd
00000320: d924 0a3e 8d1a 0abe 75fd abbd 26d6 f43d
00000330: c662 ba3d ef21 cbbc aea3 84be 1608 d23c
00000340: 25b0 a6bc 0bff dc3d 60c1 92bd 35e6 613d
00000350: 638d 0c3e 32b9 453d fcd0 c5bd 63b4 90be
00000360: e971 163d 4ee9 103c 187a fbbd 0241 49bd
00000370: 95c2 1bbd e9ef 0ebe 8617 3bbd 698f a9bc
00000380: 25dd 5fbd f664 19bd 2117 4cbc e062 0fbe
00000390: d804 d4bc 3188 773d 2c49 bc3c 583c bbbd
000003a0: 0bc7 76be 526e 82be 7298 7b3d 0d4c c8bd
000003b0: 855f 41bd 55ce 443c 3b9a bbbc ea10 163e
000003c0: bedd 99bd 37a6 02be a865 b73d 4b26 65bd
000003d0: 5f4a 693d 3fc8 44bd 4f07 8abd adbc 25be
000003e0: 86a6 38be 89af 9b3c d3f7 0ebb 5daf c1bc
000003f0: 62f0 52be cd60 2bbe 92fb 3fbd ac84 9d3a

fc3.bias f4 [64]
-0.10617819 -0.26524517 -0.05288714 0.49492258 -0.13485405 0.45584515 -0.122097135 0.31412122
-0.2921787 -0.2183213 -0.0659226 -0.13644274 -0.0863354 -0.08040178 -0.09918941 -0.102235116
-0.09559208 0.5908741 -0.15551816 -0.060128473 -0.26757455 -0.119021036 -0.09539207 -0.14115535
0.15708086 -0.052108064 -0.15610266 -0.05344487 -0.23157777 0.1294392 -0.20913969 0.29554546
0.47344854 -0.095269874 0.5832501 0.27166337 0.18558611 0.065046534 -0.21967673 0.5590766
-0.09161154 -0.06684976 -0.106511034 0.24427049 -0.116624705 -0.3750566 -0.3711671 -0.14392959
0.20364103 -0.07985944 0.32228023 -0.106830075 -0.057741217 -0.09237623 -0.09679781 -0.062283803
-0.24132809 -0.2422386 -0.10158669 -0.14453518 -0.16322583 -0.09494203 0.2477986 0.36895
00000000: f373 d9bd 37ce 87be 30a0 58bd 7e66 fd3e
00000010: 2e17 0abe 8964 e93e 100e fabd 7fd4 a03e
00000020: 7298 95be 9e8f 5fbe 6e02 87bd a5b7 0bbe
00000030: 9dd0 b0bd b0a9 a4bd d123 cbbd a560 d1bd
00000040: c8c5 c3bd 8643 173f 2740 1fbe 4649 76bd
00000050: 88ff 88be 4dc1 f3bd eb5c c3bd 078b 10be
00000060: ced9 203e 446f 55bd 60d9 1fbe 02e9 5abd
00000070: b922 6dbe b68b 043e b728 56be bc51 973e
00000080: d967 f23e da1c c3bd e14f 153f 7617 8b3e
00000090: 490a 3e3e 1e37 853d f0f2 60be a51f 0f3f
000000a0: d59e bbbd 87e8 88bd 7522 dabd 0b22 7a3e
000000b0: efd8 eebd 6b07 c0be 9d09 bebe 4762 13be
000000c0: 4687 503e 598d a3bd ea01 a53e bac9 dabd
000000d0: 0e82 6cbd c02f bdbd ee3d c6bd 4d1d 7fbd
000000e0: b61e 77be 650d 78be af0c d0bd 0801 14be
000000f0: ac24 27be f870 c2bd ebbe 7d3e 04e7 bc3e

fc4.weight f4 [32, 64]
0.0037606028 -0.06117092 0.0054475265 -0.07132896 0.054127757 -0.07473418 -0.123326495 0.028971195
-0.110304624 -0.08165003 0.019102724 1.2421128e-05 -0.08867688 0.008345505 0.012600824 0.057528283
-0.019820094 -0.008214412 0.11448676 -0.031757582 -0.11065723 0.097897574 0.0304666 -0.06889153
-0.08496385 -0.040773463 -0.099305525 -0.1495443 -0.10288691 0.0049079037 0.01754333 0.044240333
-0.14410254 -0.05288786 -0.0071206307 0.08209606 -0.13566779 -0.013268086 -0.06102593 -0.054875292
-0.042674594 -0.064827584 -0.02057746 -0.05357915 0.008638695 -0.13848454 -0.108889274 -0.08764684
-0.16777793 0.01841289 0.08487968 -0.068141684 -0.009635385 -0.123213015 -0.11547284 -0.0026112513
-0.021915805 -0.08930417 0.09202634 -0.050792504 0.11812283 0.044280887 -0.01970949 0.024275357
0.044319905 -0.05138478 -0.011866473 -0.44752067 -0.068006694 -0.53407854 -0.10220644 0.021834027
-0.23486002 -0.038742542 0.022170998 0.010388406 0.059073288 0.036260225 0.070078254 0.019322766
0.18569626 -0.6413418 -0.01472266 0.0056654736 -0.09263955 0.030494617 0.029277185 -0.061170936
-0.083451174 -0.087225765 -0.059352987 0.08135519 -0.1007585 -0.29298198 -0.25623348 -0.6307315
-0.24727874 0.10044739 -0.2232002 -0.66433233 -0.27523565 -0.13577501 -0.11290709 -0.49844798
-0.06545134 -0.08842918 0.056563415 -0.14712153 -0.06895448 0.06685934 0.15698025 0.1646941
0.15609372 -0.056149133 -0.45121107 -0.1345666 -0.08339671 0.028654957 -0.03251227 -0.012021725
-0.017074088 0.0014893215 -0.06799462 -0.014704972 -0.023267545 -0.07519011 -0.48677585 -0.15497419
-0.019193606 0.18826726 0.10493822 0.031443164 0.078375496 -0.06793778 -0.03713091 -0.06089889
0.40954643 0.17101693 0.044025823 0.17216182 0.03733527 -0.0072054737 0.009844846 0.13845275
0.11605668 -0.011877002 -0.054640293 0.11618786 0.12988782 0.01848763 0.0688534 -0.020989904
-0.092542596 0.13511805 -0.03984348 0.052394386 0.054854274 0.03138869 0.045522276 0.012076097
-0.17448975 0.038407553 0.09382969 -0.38299745 -0.08208714 0.18224356 0.12386395 0.19425446
0.07417285 0.1296356 0.20876695 -0.16818132 0.10272965 0.14285214 0.14131589 0.004398405
0.090367965 0.025905915 -0.17097569 0.08228092 0.02027934 0.13655889 0.15793929 -0.06531024
0.12579234 0.09387831 -0.040538646 0.10534131 -0.0412324 0.094107375 -0.13130777 0.19989769
-0.24682844 0.022897473 0.008258078 -0.4266187 -0.10754774 -0.29219353 0.040166207 -0.6559766
-0.37297204 -0.5244895 0.1745256 -0.047577776 -0.11200593 -0.05290577 0.024921149 -0.114816114
0.030383939 0.005697735 -0.12021191 -0.058281165 -0.138454 -0.071341954 -0.009312261 -0.00730249
-0.18156976 -0.107360736 0.12011586 -0.04928556 0.0032880558 -0.16438887 0.2257841 -0.53382623
-0.15760405 -0.11429481 0.3168521 -0.17806076 -0.26330876 -0.05499332 0.25478768 0.0046053277
0.05147515 0.09557837 -0.09099543 -0.4293353 -0.1521084 0.12413732 0.031298768 0.012851053
-0.33630916 -0.095955126 -0.535497 -0.0706038 -0.15312965 -0.34968725 0.15734252 -0.06513221
-0.1943489 -0.2894635 -0.11972086 0.09778759 0.07467809 0.07207613 -0.38993886 -0.014583222
00000000: 7274 763b 5c8e 7abd 2a81 b23b eb14 92bd
00000010: 11b5 5d3d 3c0e 99bd 9a92 fcbd 0055 ed3c
00000020: 64e7 e1bd 2238 a7bd 517d 9c3c 5764 5037
00000030: 399c b5bd 96bb 083c b073 4e3c c7a2 6b3d
00000040: c05d a2bc be95 06bc 0978 ea3d 3d14 02bd
00000050: 42a0 e2bd 867e c83d 1795 f93c 0117 8dbd
00000060: 8701 aebd 1302 27bd b260 cbbd 2422 19be
00000070: 5fb6 d2bd 7bd2 a03b 08b7 8f3c 5a35 353d
00000080: 9e8f 13be f1a0 58bd 2e54 e9bb fb21 a83d
00000090: 7fec 0abe 6362 59bc 53f6 79bd eac4 60bd
000000a0: 8ecb 2ebd 53c4 84bd 1092 a8bc d075 5bbd
000000b0: 5089 0d3c e4ce 0dbe 5701 dfbd 3080 b3bd
000000c0: facd 2bbe a1d6 963c 66d5 ad3d de8d 8bbd
000000d0: bcdd 1dbc 1b57 fcbd 067d ecbd 8721 2bbb
000000e0: c688 b3bc 1be5 b6bd 4e78 bc3d cd0b 50bd
000000f0: 62ea f13d e05f 353d cc75 a1bc 1ddd c63c
00000100: ca88 353d d978 52bd 986b 42bc 6e21 e5be
00000110: 1847 8bbd 5fb9 08bf 9c51 d1bd 46dd b23c
00000120: 257f 70be 80b0 1ebd f49f b53c 2234 2a3c
00000130: d5f6 713d 9a85 143d 3085 8f3d c74a 9e3c
00000140: 2927 3e3e fa2e 24bf 5037 71bc 70a5 b93b
00000150: ceb9 bdbd d9cf f93c b5d6 ef3c 608e 7abd
00000160: 73e8 aabd 6ca3 b2bd 1e1c 73bd 8d9d a63d
00000170: 795a cebd bc01 96be 0931 83be 9f77 21bf
00000180: a336 7dbe 5cb7 cd3d 988e 64be af11 2abf
00000190: b0eb 8cbe 9b08 0bbe d53b e7bd 9334 ffbe
000001a0: 5a0b 86bd 5c1a b5bd 0aaf 673d 07a7 16be
000001b0: 0238 8dbd 8ded 883d 6ebf 203e 92a5 283e
000001c0: 08d7 1f3e a2fc 65bd 2305 e7be d4cb 09be
000001d0: e5cb aabd cdbd ea3c 962b 05bd c5f6 44bc
000001e0: f5de 8bbc 5635 c33a c340 8bbd 1fed 70bc
000001f0: 949b bebc 46fd 99bd af3a f9be 8eb1 1ebe
00000200: e93b 9dbc 22c9 403e d9e9 d63d 8cca 003d
00000210: 5583 a03d f622 8bbd 9516 18bd 1d71 79bd
00000220: 12b0 d13e 101f 2f3e 6c54 343d 304b 303e
00000230: deec 183d e51b ecbb 474c 213c 8fc6 0d3e
00000240: 20af ed3d c297 42bc 80ce 5fbd e7f3 ed3d
00000250: 5001 053e 5f73 973c 0303 8d3d 05f3 abbc
00000260: f986 bdbd 635c 0a3e eb32 23bd 7f9b 563d
00000270: e0ae 603d 6d91 003d 9175 3a3d d2da 453c
00000280: 71ad 32be 3d51 1d3d c829 c03d 3e18 c4be
00000290: 4d1d a8bd 0e9e 3a3e 62ac fd3d a4ea 463e
000002a0: efe7 973d 32bf 043e 01c7 553e b937 2cbe
000002b0: ec63 d23d d547 123e 1db5 103e 7f20 903b
000002c0: d712 b93d a438 d43c 4014 2fbe e682 a83d
000002d0: dc20 a63c 18d6 0b3e d6ba 213e 60c1 85bd
000002e0: b5cf 003e 4543 c03d da0b 26bd 2fbd d73d
000002f0: 4ee3 28bd 5ebb c03d 8b75 06be fbb1 4c3e
00000300: 98c0 7cbe 7b93 bb3c e44c 073c c46d dabe
00000310: fd41 dcbd 649a 95be 5285 243d 15ee 27bf
00000320: 31f6 bebe f244 06bf d7b6 323e eae0 42bd
00000330: 5d63 e5bd b8b3 58bd 7027 cc3c b624 ebbd
00000340: bde7 f83c 11b4 ba3b a931 f6bd 3bb8 6ebd
00000350: e3c6 0dbe bb1b 92bd 7492 18bc ba49 efbb
00000360: 6ced 39be f2df dbbd 4eff f53d a8df 49bd
00000370: 6c7c 573b 8e55 28be f233 673e d6a8 08bf
00000380: f562 21be 6613 eabd 703a a23e 8f55 36be
00000390: 68d0 86be ad40 61bd 8873 823e 4ae8 963b
000003a0: 9bd7 523d 98be c33d d05b babd d6d1 dbbe
000003b0: 4ec2 1bbe b53b fe3d 2333 003d 398d 523c
000003c0: b730 acbe 1f84 c4bd 5516 09bf ba98 90bd
000003d0: 05ce 1cbe 350a b3be 661e 213e 0964 85bd
000003e0: 6603 47be 8f34 94be 3630 f5bd dc44 c83d
000003f0: d4f0 983d a69c 933d 11a6 c7be 77ee 6ebc

fc4.bias f4 [32]
-0.12864295 0.11689765 -0.8427999 -0.05530884 -0.16633613 -0.148665 0.03858746 0.55229074
-0.22502895 0.32743895 -0.08918754 0.2620132 0.42303228 0.3872504 0.021966305 -0.05582946
-0.10838761 -0.22871241 0.47768047 -0.061857596 0.007968869 -0.15889388 0.08749744 -0.08349295
-0.10785403 -0.24209957 -0.11087794 0.1134239 -0.21876805 0.19462827 -0.32221663 0.3770538
00000000: faba 03be 0968 ef3d bcc1 57bf 868b 62bd
00000010: 0554 2abe a33b 18be e20d 1e3d ed62 0d3f
00000020: fd6d 66be 14a6 a73e f5a7 b6bd 9826 863e
00000030: b097 d83e af45 c63e aef2 b33c 6fad 64bd
00000040: 53fa ddbd 9633 6abe 8992 f43e 645e 7dbd
00000050: dc8f 023c 14b5 22be dc31 b33d 5afe aabd
00000060: 93e2 dcbd f3e8 77be f913 e3bd ca4a e83d
00000070: bb04 60be a24c 473e 94f9 a4be 320d c13e

output.weight f4 [2, 32]
-0.1974074 0.1569647 -0.22786804 0.012250945 0.056703977 -0.06625005 0.15368143 0.30050728
0.048950702 0.10991161 0.0027764102 0.04233313 -0.24654329 0.21869543 0.046102162 -0.05226458
0.052236807 0.045697995 0.10182019 0.007840074 0.23033668 -0.12176484 0.5011477 0.08791542
-0.15693289 0.05884764 0.020633694 0.18182854 0.14390495 0.23065971 0.011976561 0.1225698
0.13173443 0.021949178 0.02135393 0.0687485 0.022006668 0.01018429 0.06398738 -0.06447434
-0.0352644 -0.026331939 -0.038418733 0.1006478 0.023249079 0.10197991 -0.021037253 0.023935454
-0.017399197 -0.032576773 -0.26589522 0.016483163 0.008736369 -0.0010534185 0.24731895 -0.028918676
0.0779764 -0.011303541 0.1022791 -0.028004188 -0.15858036 -0.08806136 -0.029299395 0.1742275
00000000: 2a25 4abe 5bbb 203e 3d56 69be 30b8 483c
00000010: 6e42 683d 1bae 87bd aa5e 1d3e 17dc 993e
00000020: 8880 483d 5719 e13d 6ff4 353b 8165 2d3d
00000030: d875 7cbe b2f1 5f3e 9fd5 3c3d 6213 56bd
00000040: 43f6 553d d22d 3b3d 1b87 d03d a773 003c
00000050: 61dd 6b3e d85f f9bd 374b 003f 000d b43d
00000060: 04b3 20be 390a 713d fe07 a93c 4331 3a3e
00000070: d25b 133e 0f32 6c3e 5639 443c e005 fb3d
00000080: 64e5 063e c3ce b33c 70ee ae3c 03cc 8c3d
00000090: 5447 b43c 02dc 263c d10b 833d 1f0b 84bd
000000a0: 6771 10bd 14b6 d7bc f65c 1dbd 6f20 ce3d
000000b0: da74 be3c d8da d03d 5156 acbc 4914 c43c
000000c0: c388 8ebc 396f 05bd 6b23 88be b307 873c
000000d0: fd22 0f3c dc12 8aba 2e41 7d3e dce6 ecbc
000000e0: 17b2 9f3d 7d32 39bc b477 d13d 0a69 e5bc
000000f0: e462 22be 8459 b4bd 4905 f0bc b268 323e

output.bias f4 [2]
0.649466 -0.00013998788
00000000: 6743 263f b6c9 12b9
